cache/global_model.pt (torch, 457289 bytes, 10 tensors)

conv1.0.weight f4 [8, 1, 3, 3]
000000 5f af 4a be 66 00 b3 bd 20 2e e9 bd bc ef 07 3f
       -0.19793461 -0.0874031 -0.11385751 0.5310018
000010 30 bb 0e 3f b0 03 c0 3e 7c 71 0e 3f 16 68 3b 3e
       0.55754375 0.37502813 0.55641913 0.18301424
000020 07 79 cd bd e7 82 f9 bc 52 9b f3 bd 3b 63 a8 3e
       -0.1003285 -0.030457927 -0.118948594 0.32888207
000030 e3 b1 a7 3c 30 b3 30 be 14 9c 19 3e 93 9b 52 3d
       0.020470565 -0.17255855 0.15000945 0.0514179
000040 8e 8f 68 be bb 59 09 be 7f 09 7f 3e 2f 0b 92 be
       -0.22711012 -0.13413136 0.24905966 -0.28524157
000050 ae e3 a8 be 63 2e 11 be a6 30 a5 be 93 b0 76 bd
       -0.32986206 -0.14177851 -0.32263678 -0.060226988
000060 1b 9c 91 be 10 ea 83 3e 26 11 50 be 6e 51 a9 be
       -0.28439412 0.25764513 -0.20319042 -0.33069938
000070 10 50 26 be c3 13 f3 3e 70 c7 b2 be 5e 23 69 be
       -0.16241479 0.47476014 -0.34917784 -0.22767398
000080 a3 cc c5 3e 38 8a 41 bc d7 1a 23 be 94 6b af 3e
       0.38632688 -0.011812739 -0.15928207 0.34261763
000090 3e ca 18 be 5e f5 9b 3d da f1 91 3e 9e 72 ac 3b
       -0.149209 0.076151595 0.2850483 0.005262687
0000a0 56 96 b8 3d fd 05 1d 3e 83 09 c0 3e 10 2a 40 3e
       0.09013049 0.15334316 0.37507257 0.18766046
0000b0 a4 2a 00 3e 56 57 26 3e 57 2c 37 be f8 66 50 be
       0.12516266 0.16244254 -0.17888008 -0.2035178
0000c0 c3 40 5c be 67 5e 21 be cb 48 65 be 0f 50 9a be
       -0.2150908 -0.15758668 -0.2239105 -0.30139205
0000d0 4f 4c 62 be 24 69 79 3d 96 21 fb bd c2 2d f0 3e
       -0.22099422 0.060891286 -0.122622654 0.4690991
0000e0 a3 73 5d 3f 8e a6 e4 3e ba 49 64 3f a4 bd 43 3f
       0.8650457 0.4465832 0.89175 0.76461244
0000f0 42 c5 f8 3c 74 5c 07 3f db 5d 2d 3f 0a 99 df 3e
       0.030367497 0.5287545 0.6772134 0.43671447
000100 8d 50 17 3e 4f 43 f6 bd bb 50 a5 3e d8 8e d9 3e
       0.14776821 -0.12024557 0.32288155 0.42491794
000110 a7 a1 8e 3e cb f9 8b 3e c6 78 a4 3e 16 42 be 3e
       0.27857706 0.27339014 0.32123393 0.37159795

conv1.0.bias f4 [8]
000000 63 94 d1 3e 50 0d b7 3c ca 46 d9 bc df a3 4f be
       0.40933523 0.022345215 -0.026523013 -0.20277356
000010 10 6b 3e 3d 16 54 b3 3e f8 67 9f 3e 3d 2a 8f bd
       0.04648882 0.3502509 0.3113401 -0.06990478

conv2.0.weight f4 [16, 8, 3, 3]
000000 ae ce 82 ba cb 97 41 3e 22 fc d7 3d 12 b4 2c 3e
       -0.0009979808 0.1890556 0.105461374 0.16865566
000010 b6 b3 1d bc cc d0 07 3e 0c d9 87 3d 22 08 18 be
       -0.009625366 0.13263243 0.06633195 -0.14846852
000020 23 22 38 bd 43 2d ad bd 5b b1 13 bd 5c e5 b4 bd
       -0.04495443 -0.084558986 -0.03605781 -0.08832809
000030 04 5a a0 bb 5a 6f 7c bd e6 4e 2a 3d ce a6 b0 bc
       -0.004893543 -0.06162963 0.04157915 -0.021563914
000040 93 f5 64 3d 23 90 9c bd a4 38 1c bd ea c5 11 3c
       0.05589826 -0.076446794 -0.038139954 0.008897284
000050 60 6e 91 bd 88 52 ed 3d a6 8b 82 bd 7c 3d d8 bc
       -0.071011305 0.11588007 -0.06374292 -0.026396506
000060 77 f8 76 3c b8 52 90 3d eb 26 68 bd 90 ae 50 bc
       0.015073887 0.07047027 -0.05667774 -0.012736931
000070 10 72 d7 3b 08 30 f7 bd 1c a9 a7 bd f9 0b 1f 3d
       0.0065748766 -0.12069708 -0.08186552 0.038829777
000080 a2 83 ad bd 03 a2 fd bd 32 ab 04 3d 73 80 b9 bd
       -0.084723726 -0.12384417 0.032389827 -0.09057703
000090 a1 88 20 3e 83 4c 99 bc 26 bb 75 bc af 97 17 3e
       0.1567712 -0.018713241 -0.014998233 0.14803956
0000a0 08 77 85 3d 2c 57 93 bd ee 3c 48 bd 52 47 28 bd
       0.06516844 -0.07194361 -0.048886232 -0.04108364
0000b0 bf b4 79 bc 80 17 71 bc 8e 60 b4 3d a7 b0 df 3d
       -0.015240847 -0.0147150755 0.08807479 0.10922366
0000c0 f0 11 6a 3d 62 da c6 3d bc a4 0f bd 04 45 03 3d
       0.057146013 0.09709622 -0.035069212 0.03204824
0000d0 3f bd d8 3d e6 81 10 bc 8b 67 82 3e c4 4c 36 3e
       0.10582971 -0.008820033 0.25469622 0.17802721
0000e0 ef 45 f7 3d 40 ff 74 3e 0c 7e 96 3c ac 04 a6 3d
       0.12073886 0.23925495 0.01837065 0.0810636
0000f0 3e 44 6b 3d 2b 15 bd bd 2f 66 25 be 5e df 29 3e
       0.057438128 -0.09232553 -0.16152261 0.16589114
000100 ab ba 46 3d 1b e7 d2 3d 0b 03 8c 3d d6 d8 4c 3b
       0.048517864 0.10297986 0.06836518 0.0031257174
000110 62 33 0d 3c 8f 45 a5 bd 96 98 16 be 9c 34 c2 3b
       0.008618208 -0.08069908 -0.14706644 0.0059266817
000120 d4 d3 48 3d 9c 31 12 3b 32 f5 9f bd 1e fc c9 3c
       0.04903014 0.0022307402 -0.07810439 0.024656352
000130 b8 ae c1 3d ea 86 db bd ea 51 a8 3c 57 ee 65 3a
       0.09457153 -0.10719092 0.020546872 0.0008771172
000140 99 a3 12 3e a4 68 4a bd 67 9f dd 3d 9c 72 86 3d
       0.1432022 -0.0494162 0.10821419 0.06564829
000150 d3 90 e7 3d e6 64 83 3d 76 73 24 bd cc 63 04 bd
       0.1130692 0.06415729 -0.040149175 -0.032321736
000160 08 f9 b7 3d 28 45 92 bc 8f 5b be 3d 9f 95 28 bd
       0.08983046 -0.017855242 0.09294807 -0.041158315
000170 57 89 5f 3d db c9 7d 3d 90 00 26 3d be 70 d5 3d
       0.054574337 0.061960083 0.04052788 0.104218945
000180 23 cc da bd a0 7d 0e bc a2 05 b9 3d fa 57 8b bd
       -0.10683467 -0.0086969435 0.090342775 -0.068038896
000190 fe 65 f8 3d aa 91 de 3d f8 e0 d9 bd 7a 0a 8e bd
       0.121288285 0.10867627 -0.106386125 -0.06935592
0001a0 6c 14 2b bc 2b e4 b7 3d 1f 50 d2 bd fe e2 f0 bd
       -0.010441881 0.089790665 -0.10269188 -0.11762045
0001b0 40 75 b8 3d fe ee ad 3b 5e 23 af 3d 33 3e a4 3d
       0.09006739 0.005308031 0.08551668 0.08019676
0001c0 b3 b6 e3 3d 89 dd 00 3c 93 7d 73 3d 26 1a d9 3c
       0.111188315 0.007865318 0.05944593 0.026501726
0001d0 22 97 b5 bd 5f 00 bb bd 8e 0c d8 3d e8 af 26 3d
       -0.08866717 -0.0913093 0.105492696 0.0406951
0001e0 fa 89 4e bd 82 da a4 bd 08 e7 13 3e 1e 37 bb 3d
       -0.050424553 -0.080494896 0.144436 0.09141372
0001f0 0e 78 f9 bc 98 b7 c5 3b c8 ce f3 bc 5e 36 cc 3d
       -0.030452754 0.006033849 -0.029761687 0.09971307
000200 14 44 7c bd 0f 35 98 bd 05 d9 91 bd e2 07 19 be
       -0.06158836 -0.07431995 -0.07121471 -0.14944413
000210 63 74 4c 3d 8c 20 2d 3e 36 f0 8a 3d e7 48 f3 bc
       0.049915683 0.16906947 0.06784098 -0.029697848
000220 5b 5e 38 bd 4b ab d3 3b 64 27 3d 3d ff ed 10 bd
       -0.04501186 0.0064596287 0.046180144 -0.03538322
000230 60 83 c8 bd b6 b4 63 3c 60 c8 fb 3d e7 0c bc 3d
       -0.09790683 0.013898065 0.12294078 0.091821484
000240 bb 05 c6 bd 00 1f 90 bc 66 f6 96 bd 14 80 44 bd
       -0.09669062 -0.017592907 -0.073712155 -0.047973707
000250 92 c7 93 bb 73 00 bc 3d 10 38 96 3d fe 88 99 3c
       -0.0045098746 0.09179773 0.07334912 0.01874208
000260 67 92 2e 3d f6 31 36 3d 14 b4 cc bc c0 12 f1 bb
       0.04262009 0.04448124 -0.024988212 -0.0073569715
000270 82 0d ac 3d f0 14 f1 bc 4c ff a3 3d aa 12 21 3d
       0.08401014 -0.02942893 0.080076784 0.03932444
000280 d9 69 18 bd f2 13 19 bd 9b 75 b9 3d 4a b0 ea 3d
       -0.03721032 -0.037372537 0.090556346 0.11459406
000290 de bf 86 bd db a7 96 3c 3e 5c cb 3d db 75 c4 bb
       -0.065795645 0.018390587 0.09929703 -0.005995495
0002a0 fa c3 ea 3d db a6 2c 3d 5a 2d 96 3d 32 8e 13 3e
       0.11463161 0.042151313 0.07332869 0.14409712
0002b0 84 c0 ee 3d c2 55 24 3e 04 88 a2 3b 1b a2 9c 3c
       0.11657813 0.16048339 0.004960062 0.019120267
0002c0 82 54 ed 3c 77 10 fb 3d ab a0 8f 3d 76 7c 6f 3d
       0.02897096 0.12259 0.07013067 0.058468305
0002d0 53 c3 ac bd cf 74 d2 3d 38 56 9b 3c 98 bd 70 3d
       -0.08435693 0.10276186 0.01896201 0.05877456
0002e0 12 77 f7 3d 63 c4 17 bd 90 bf ba 3d 93 c2 9a 3d
       0.12083258 -0.037052523 0.09118569 0.07556643
0002f0 68 23 18 3e 7c 75 53 bd 9b 05 c7 3b 6a 62 8a bd
       0.14857256 -0.051625714 0.0060736663 -0.06757052
000300 ce b9 96 3d e3 9b 06 3e 65 20 1c 3d 8a f5 03 3e
       0.07359658 0.13145404 0.03811683 0.12886634
000310 44 c8 cf bc 2f 69 c5 bd a2 93 2b 3d 36 bf ee 3d
       -0.025364049 -0.09639203 0.04188884 0.11657564
000320 db 7c 1a 3e 4c fd 3e 3e 8a 49 9d 3d 30 9a 7b 3e
       0.15086691 0.18651313 0.07680042 0.24570537
000330 8e 98 55 3e c6 48 5d 3e bb ce 78 3e 33 60 2f bd
       0.20858976 0.21609792 0.24297611 -0.042816352
000340 ec 72 53 bd 43 a9 2e 3d 7b dd b0 3d 7e ed 4b 3d
       -0.05162327 0.04264189 0.08635994 0.049787037
000350 50 8d 48 3e 40 84 01 3e 5b cf 0d bd f2 72 88 3d
       0.19585156 0.12648106 -0.034621578 0.06662549
000360 f7 c5 3f 3c 73 16 55 bd 00 9e 15 3b 8e ea b9 3c
       0.011704913 -0.052023362 0.002282977 0.022694852
000370 be 80 f2 ba 4c c5 20 3d 4f 6e c1 bd 94 35 b0 3b
       -0.0018501503 0.039250657 -0.09444868 0.0053774808
000380 63 4c ea bd 6f c6 b8 3c 18 4a c7 bd 56 bf c0 bd
       -0.11440351 0.022555558 -0.09730929 -0.094114944
000390 00 0f 83 bd 28 9b 58 bd 1c 67 a9 3c 6b 7d 51 bd
       -0.063993454 -0.052882344 0.02067905 -0.051145
0003a0 37 7e db bd 26 54 cd 3d 2b b9 fd bb 97 6d 1d 3d
       -0.10717433 0.10025816 -0.007743021 0.03843459
0003b0 76 90 a8 bd aa c1 1d 3c fd 56 98 bd ba 61 63 bc
       -0.08230679 0.009628693 -0.07438467 -0.01387828
0003c0 d8 63 ca bd 43 ef c7 3c e6 3a 38 3b 09 19 83 3d
       -0.09882325 0.024406081 0.0028111278 0.064012595
0003d0 13 d6 79 3d 7b bd 8a bd bc 18 2d bd 17 f3 75 bd
       0.060995173 -0.06774422 -0.042259917 -0.06004628
0003e0 d4 e0 ac 3d 78 9c a6 3b 1e 5f 89 3d a8 82 61 bd
       0.0844132 0.0050845705 0.06707595 -0.055056244
0003f0 97 f7 47 bd 0a 81 8c bd 61 d0 8a 3c 3a b3 97 3b
       -0.048820104 -0.0686055 0.016945066 0.00462952

conv2.0.bias f4 [16]
000000 23 79 8a bd c7 5b 04 3e 36 f8 35 3e 92 fd c1 bd
       -0.06761386 0.12925635 0.17770466 -0.09472193
000010 43 fa c7 3c b4 7a 3b 3d ba 6e 5d bd c7 90 6f 3a
       0.024411326 0.045771316 -0.054060675 0.00091387
000020 63 24 aa bd a2 1e a3 bd a7 60 71 3d f0 7d e9 3d
       -0.083077215 -0.07964827 0.058930065 0.11400974
000030 d3 69 17 3d 8f 17 9b 3d 1a 68 e4 3d 82 fa 62 3d
       0.036966156 0.07572853 0.11152668 0.055414684

fc1.weight f4 [128, 784]
000000 96 d4 df bc 8b 55 ef 3c 14 7d 3a bc 1b 34 3f bc
       -0.027323049 0.029215595 -0.01138236 -0.011670138
000010 0f f8 ff 3b be 37 a8 3c 88 d3 f3 bc ab e5 ef ba
       0.0078115533 0.020534392 -0.029763952 -0.0018302699
000020 b2 77 c8 3c 00 7b a9 bc f7 b4 9b 3a 18 34 19 bc
       0.024471138 -0.020688534 0.0011879493 -0.009350799
000030 cf ff df 3c 52 c8 98 3c d2 9f 8c 39 7e 68 f4 bc
       0.027343659 0.018650208 0.00026821956 -0.029834982
000040 8e 4b 76 3c 60 19 30 3d f7 ac 51 3c e8 f9 55 3b
       0.015032662 0.04299295 0.012797586 0.0032650176
000050 cb e9 15 bc 0e 52 2d 3c e4 64 6f 3c 4a c7 78 bc
       -0.009149979 0.010578645 0.014611457 -0.015184233
000060 86 72 99 3c 27 ae 9b 3c 8b a9 61 bc e7 df 8c 3c
       0.018731367 0.01900394 -0.013773332 0.017196609
000070 b6 20 01 bd 82 32 c2 3b 62 ee 7e bc 00 ab 1f 3c
       -0.031525336 0.005926431 -0.015559765 0.009745359
000080 40 8a 8b bc 67 1e 35 bc 8b a4 e6 3c 76 1f 53 3c
       -0.017033696 -0.011054612 0.028154632 0.012885919
000090 de ff bc bc ec e6 12 bd da 86 a7 3c 6f e0 e9 bc
       -0.023071226 -0.035864756 0.020450044 -0.028549401
0000a0 ce c8 e2 bc 80 bc 74 3c 79 f5 0d ba e6 18 70 bc
       -0.027683642 0.01493752 -0.00054153014 -0.014654374
0000b0 b7 99 5c 3b e2 55 27 3c ef a5 0f bc c8 29 79 bc
       0.0033660957 0.010213347 -0.008767589 -0.015207715
0000c0 7e fe bd bc 56 e7 ec 3c dc 38 98 3c 0d d6 a6 3a
       -0.02319264 0.028918903 0.0185818 0.0012728587
0000d0 9a 16 c2 3c 88 0b 02 3d 18 7c 84 3c 04 ce 90 bc
       0.023692418 0.03174928 0.016172454 -0.01767636
0000e0 b8 cd f4 3b 63 52 7d bc fd 31 0c 3c 8d 2d 08 bc
       0.0074708126 -0.015461537 0.00855684 -0.008311641
0000f0 e8 64 e9 bc 9b 34 b2 3c 4a 9d 30 bc 35 7a 08 bb
       -0.028490499 0.0217536 -0.010779688 -0.0020824794
000100 dc ea f8 3c c4 6b 51 3b 96 07 60 bc cb 1d 24 3c
       0.030385427 0.0031955102 -0.013673684 0.010016869
000110 34 29 01 3d ee 6d 6b bb ac a6 4b bc 88 6d e0 bc
       0.031533435 -0.0035923677 -0.012429874 -0.027395979
000120 f0 51 18 bd 33 53 1f bc 73 eb fe ba 67 55 ee 3c
       -0.037187517 -0.009724426 -0.0019448831 0.029093457
000130 47 3a 95 bc df ad a8 3b b6 1c 2e bc 4c 4d f3 3b
       -0.018216265 0.00514768 -0.010626962 0.007424986
000140 34 29 2d bc c8 fb 84 bc cc 70 62 bc e6 3f f3 3c
       -0.010568906 -0.01623334 -0.013820838 0.029693555
000150 bf 7f e5 3c c2 a8 b1 bc 16 47 f6 3c 10 8a 7e 3c
       0.028015016 -0.021686915 0.030063193 0.015535846
000160 66 ec b5 3b 23 32 13 3d be 4d bc bc 01 8c 88 3c
       0.0055518625 0.035936486 -0.02298629 0.016668322
000170 da fe 44 bc 6b f3 f2 bc a8 98 f7 bc a7 5e 1a bc
       -0.012023652 -0.029657086 -0.03022416 -0.009421981
000180 d8 f5 c2 bc 26 1b 83 bc 08 3a 9f bc 8a 2d 4e b8
       -0.023798868 -0.016004156 -0.019436851 -4.915664e-05
000190 cc a4 39 bc 4a cd b3 bc 30 1c 12 3d 1b 2c 50 bc
       -0.011330795 -0.021948475 0.035671413 -0.012705828
0001a0 8f 2f a0 bc 82 f8 1d bb 58 4f 15 bd 9b 39 d6 3c
       -0.019553928 -0.002410442 -0.03645262 0.026150515
0001b0 02 f8 10 3d ee 77 d9 3b b8 fb 8d 3c ea 2d f4 3c
       0.03539277 0.006636611 0.017331943 0.02980705
0001c0 49 b7 8f 3c d6 7a 43 bc 24 32 45 3d 56 4a 99 bc
       0.017543452 -0.011931142 0.04814352 -0.018712204
0001d0 5e b9 fe bc ae 05 aa 3c 20 3a b2 3a 2b 2c 1b 3d
       -0.03109425 0.020754661 0.0013597645 0.03788392
0001e0 2b 02 8d bb ea c5 09 3d 03 8f 87 bc ec 2b 09 bd
       -0.004303237 0.03363601 -0.016547685 -0.033489153
0001f0 34 c7 80 bc be b5 d5 3c af b5 f4 bb cd 84 28 3d
       -0.015719987 0.026087638 -0.0074679474 0.041142274
000200 c2 11 a2 3c 67 96 3c 3c 44 79 0c bd 9f f3 36 bc
       0.019783858 0.011510468 -0.034295335 -0.011166482
000210 06 15 14 3c 93 52 00 bc b6 1c 26 bc 8c 6c c8 3c
       0.0090382155 -0.007832187 -0.010138681 0.024465822
000220 7f c7 e4 3b cb 3a 0f bc b8 43 f8 bb cf bd e9 bb
       0.0069817896 -0.008742045 -0.007576432 -0.0071332227
000230 ce d2 66 bc 78 77 21 bd 54 f9 26 bb 20 af cf 3c
       -0.014088346 -0.039420575 -0.00254782 0.02535206
000240 be 2c 46 bc 23 a4 bd 3c 6a c7 3f bc 40 29 84 3c
       -0.012095628 0.023149556 -0.011705259 0.01613295
000250 a3 eb 30 3c f4 85 5c bc 3a 4d 10 3c ab 73 83 bc
       0.010798368 -0.013459671 0.008807475 -0.016046366
000260 2f 46 39 3c 13 00 39 3c c8 50 89 bc 80 25 0a bd
       0.011308237 0.011291522 -0.016762152 -0.03372717
000270 57 98 f1 bb e2 73 97 bc 28 a6 01 bd 64 3a 34 38
       -0.0073728967 -0.018487874 -0.0316526 4.2969725e-05
000280 23 77 8c 3c 50 70 e9 bb bb 62 90 3c 36 f8 4d 3c
       0.017146653 -0.0071239844 0.017625203 0.012571385
000290 1e 09 14 3c f4 5f 75 3b 86 e5 74 bc 8e 04 8a bc
       0.009035377 0.0037441226 -0.014947301 -0.016847875
0002a0 86 0a 46 3c e3 22 df bc 7e e0 86 3c c6 05 e0 3c
       0.01208747 -0.027238315 0.016464468 0.027346503
0002b0 3b 2c f4 bc 06 23 80 bc fa 67 cd 3c d6 7d c9 bc
       -0.029806247 -0.0156417 0.025073994 -0.024596136
0002c0 ab 43 22 3c 53 20 e1 39 b8 24 bd 3c 34 df c0 3a
       0.009903829 0.00042939428 0.023088798 0.0014714957
0002d0 53 22 52 3c c8 24 0a bd cc db e4 3c 55 44 10 bd
       0.012825566 -0.033726484 0.027936839 -0.035221417
0002e0 fb cc 96 3c 2c bd 86 3c ce 4c 88 3c bf c4 ea bc
       0.01840829 0.016447626 0.016638186 -0.028658269
0002f0 db f7 be 3c a0 50 37 bc a2 a2 00 bd b7 1d 1e 3c
       0.023311546 -0.011188656 -0.0314051 0.009650639
000300 b6 d2 3b bb 51 bf 23 bc 0c d7 8c ba 1e 75 4b 3c
       -0.002865953 -0.009994344 -0.0010745241 0.01241806
000310 4e 33 27 bc 23 f7 92 bc c0 10 b8 bc 64 fe c1 3b
       -0.010205103 -0.01794011 -0.022468925 0.0059202183
000320 d6 37 94 3c d3 d0 11 bc 6c 7a a3 3c 28 ba 03 bd
       0.01809303 -0.008899885 0.019955836 -0.032159954
000330 b3 0e f8 bc 52 c7 dd 3c ee 2e 54 3c 34 11 c3 bc
       -0.030280447 0.027072582 0.012950642 -0.023811914
000340 7b 06 0d 3d 54 a4 9a 3c fe 59 10 3b 50 c9 c4 bb
       0.03443001 0.018877186 0.0022026296 -0.0060054436
000350 38 3d ea 3b 90 bd ab bc dc df a5 bc 13 12 f3 3a
       0.007148411 -0.020964414 -0.020248346 0.0018544815
000360 96 63 fd 3c 52 63 9e 3c 6b 5d 45 bb ba 98 9c bc
       0.030931275 0.019334469 -0.0030115496 -0.019115794
000370 b2 88 96 3c 00 99 57 3c cc e6 ee bb e3 68 f2 bc
       0.018375728 0.013159037 -0.0072906967 -0.02959103
000380 12 42 04 bc 48 5c 45 3c 62 6d a2 bb e2 72 4c bc
       -0.008072393 0.012045927 -0.004956887 -0.012478562
000390 78 cb 64 3b e6 c6 cc bc 30 ee b6 bc 97 a7 0b 3c
       0.0034911316 -0.024997186 -0.022330374 0.008523843
0003a0 44 0d 1e 3c f0 c9 47 3c 3b 43 b4 bb f6 df ec bc
       0.009646717 0.012194142 -0.0055011786 -0.028915387
0003b0 10 44 8e 3a c8 bf e6 bc 5f b9 ec 3c 0e b7 46 39
       0.0010854024 -0.02816762 0.028896986 0.00018950945
0003c0 e8 8b 8c 3c 02 8c ac 3b 7f 07 a0 3c 63 53 33 3c
       0.017156556 0.0052657137 0.019534824 0.010945174
0003d0 08 61 ce bc 63 48 0d bd 97 b8 9c 3c 27 cb 0b 3d
       -0.025192752 -0.03449286 0.019130988 0.034129288
0003e0 0e 33 c1 3c 71 19 99 3c 07 11 ef 3b 46 5e 6a 3c
       0.023583915 0.01868889 0.007295731 0.014304703
0003f0 c6 ea 73 bc ab 93 8c 3c d2 6a ee 3c eb 61 9a ba
       -0.014887517 0.017160257 0.02910367 -0.0011778449

fc1.bias f4 [128]
000000 eb f4 d6 3b 86 6f 1f 3d 02 12 3f bc 3f 0c 8c 3c
       0.006559958 0.038924716 -0.011662008 0.017095683
000010 9c 21 84 3c 6e 33 9a bc 76 bc b7 3c d8 25 29 bb
       0.016129307 -0.018823352 0.022428732 -0.002580991
000020 04 77 a5 bc 4b a4 5c bc 4e ae 5a 3c 37 57 7d bc
       -0.020198353 -0.013466905 0.013347222 -0.015462688
000030 7b 52 62 bb 56 2d 50 3c ca 2d 43 3c 70 f5 01 3d
       -0.0034534025 0.012706121 0.011912772 0.031728208
000040 00 27 0b bd d2 fe ef 3b 30 a3 d1 bc c3 90 24 bc
       -0.03397274 0.007324078 -0.02559051 -0.0100442795
000050 0a c2 f7 bc 17 06 31 3d ac de 97 3c d7 12 3c 3b
       -0.030243892 0.0432187 0.018538795 0.0028697753
000060 c8 d8 21 3c 63 48 c7 3c 00 a3 10 bd f7 32 09 bc
       0.009878345 0.024326509 -0.0353117 -0.008373967
000070 64 71 62 3c 7a 10 e5 bc 92 b5 00 bc 46 65 13 3c
       0.01382098 -0.027961958 -0.00785579 0.008996313
000080 83 25 c8 3b 8e a9 7c ba e6 a8 2e 3c a2 50 ad 3c
       0.0061079874 -0.0009638303 0.010660386 0.021156613
000090 06 de 52 3c a1 2b 9d 3b 1c 29 b5 bb 36 53 1f 3d
       0.012870317 0.0047964607 -0.0055285823 0.038897716
0000a0 0e 5b f8 3c 2e 2d 3d bc 93 20 c8 3c 42 38 16 3d
       0.030316856 -0.011546416 0.024429595 0.036674745
0000b0 94 7c 79 bc 57 56 8f bc de 38 dc ba ce 0d e1 bc
       -0.015227456 -0.017497225 -0.0016801616 -0.027472403
0000c0 72 5f 79 b8 98 44 82 3a db ac c0 bc 3a 46 7a bc
       -5.9455117e-05 0.0009938655 -0.023519924 -0.015275532
0000d0 c0 1e 9d bc 27 a7 5b bb 3f 21 c0 3b 7f 6b 9e 3c
       -0.019179702 -0.0033516379 0.0058633382 0.019338368
0000e0 86 d0 e7 bb b4 3c 9d 3b 67 d7 c1 bc 66 ba bf bc
       -0.0070744185 0.004798496 -0.023662282 -0.023404311
0000f0 62 23 c8 3c d2 37 46 3b 38 27 00 3c a6 67 f1 3b
       0.024430934 0.0030245674 0.0078218505 0.007367092
000100 1e 21 0e bb 00 d3 c2 bc d4 8f 17 3c eb be e3 3c
       -0.002168722 -0.023782253 0.0092506 0.027800998
000110 46 20 0c bd 32 57 9c 3c e3 70 11 bb 2f c7 42 bb
       -0.034210466 0.019084547 -0.002219253 -0.0029720773
000120 6c 12 c5 bc f6 1c 05 3d 48 79 86 3c f6 00 f5 bb
       -0.024056636 0.032498322 0.016415253 -0.007476921
000130 da e7 59 bc db da ff bc db 4a dc 3a d6 bb 8f 3c
       -0.013299907 -0.031232288 0.0016806977 0.017545622
000140 a8 5a a7 bc a3 56 5c bc 7a 8c 07 bd 2c 35 ad bc
       -0.02042897 -0.01344839 -0.033092953 -0.021143518
000150 a4 1c 67 b9 be 90 e8 3c e4 74 0f 3d 73 2b ca 3c
       -0.00022040546 0.028389331 0.035023585 0.024678921
000160 86 6e 96 bb 0a 8c 85 3c 60 22 1f bc 50 57 91 bc
       -0.004590812 0.016302127 -0.0097127855 -0.01774183
000170 42 8a e3 3c 09 be 11 bc 6f d7 0d 3c 9c 17 0a 3c
       0.027775887 -0.008895406 0.00865732 0.0084284805
000180 b6 4a be bc b7 15 96 3c a6 3c 50 3b a6 68 3b 3d
       -0.023228984 0.018320901 0.003177443 0.045754097
000190 f0 33 f7 bc 2e 97 47 3c 06 26 7c bc 6c 4c 11 3d
       -0.030176133 0.01218204 -0.015389925 0.035473272
0001a0 d6 6d 8d bc 04 ea e1 3c ab 91 4b bc e7 8a 9c bc
       -0.017264288 0.027577408 -0.012424867 -0.019109203
0001b0 74 42 73 3c 3b b9 45 3c 26 fe 65 3c ab 07 99 bc
       0.014847387 0.012068088 0.0140376445 -0.018680414
0001c0 d3 46 cb 3c 48 f3 8d bc f4 4f 06 3d 4b bb 20 3c
       0.024814045 -0.01732792 0.032791093 0.009810279
0001d0 43 d4 e1 ba 78 45 cb 3c 19 cc 88 bc 03 2b 25 3d
       -0.0017229397 0.024813399 -0.016698884 0.040324222
0001e0 d7 5a d9 bc 5b 10 a1 3c 3e 87 1c 3d 94 6a a1 bc
       -0.026532574 0.01966112 0.038214915 -0.01970414
0001f0 1f 8d 1f bd e9 eb 94 3c bb 87 e4 bc 3b 38 b9 bb
       -0.038952943 0.018178897 -0.027896753 -0.005652455

fc2.weight f4 [84, 128]
000000 fc 21 25 3d 70 28 ce 3c 76 01 d7 bd 07 2e 31 3d
       0.040315613 0.025165766 -0.104983255 0.043256786
000010 4e a9 ef bb 30 c3 c2 3d 12 ca ba 3d 6b 3a 35 3d
       -0.007313884 0.09509885 0.09120573 0.044245165
000020 d4 c3 27 3d 6c 0b 80 bd a0 ff db bc 3e 20 de bc
       0.04095824 -0.062521785 -0.02685529 -0.027114984
000030 62 c0 b7 3d 08 cc 8f 3d 36 10 cb bc 1a 16 24 bd
       0.08972241 0.07021338 -0.024788003 -0.04006014
000040 52 b4 96 3c 2b 33 af 3d e6 f1 5a 3d f2 b9 4f 3d
       0.01839653 0.085546814 0.05345335 0.05071444
000050 84 37 60 bb d4 78 82 3d 5e b9 b4 bd cf f5 81 3d
       -0.0034212777 0.063707024 -0.088244185 0.063457124
000060 54 a0 69 3d 46 c8 04 3d 00 a9 9b 3d 13 26 ad 3d
       0.057037666 0.032417558 0.076005936 0.08454528
000070 a7 59 6f 3b e7 53 b4 3d ae 03 1c bd 3e f6 f3 3c
       0.0036521943 0.088050656 -0.038089447 0.029780503
000080 62 5f af 3c 38 27 bf 3c 17 94 94 bd b0 47 5b 3c
       0.021407787 0.02333413 -0.072548084 0.013383791
000090 dc aa 21 3d 42 28 99 bd d8 76 f5 bc 6d 60 87 3d
       0.039469585 -0.07478382 -0.029963896 0.06610189
0000a0 b6 b8 2a 3d a8 21 5d bd 0b bb d2 bb 3f 96 a5 3d
       0.04168006 -0.053987175 -0.0064309887 0.08085298
0000b0 8e af 2d 3c 9f bd 40 bd 0b 05 a3 3d 36 65 87 3c
       0.0106009375 -0.047055837 0.07959946 0.016527753
0000c0 a0 1f b2 3c aa 2c a7 bc 6b 0d d3 3c 88 c6 ac 3c
       0.021743596 -0.02040704 0.025763234 0.02109076
0000d0 be 93 8b 3d 48 d2 7d bd bf 4d 58 bd 43 10 9e bc
       0.06815289 -0.061968118 -0.05280852 -0.019294864
0000e0 3f 8b d6 bc c2 19 8f 3d d6 43 96 bc f4 3a 2c bd
       -0.026189445 0.06987335 -0.018342894 -0.04204841
0000f0 ae 81 df 3c 16 21 34 3d 38 30 7e bd 30 2c 59 bc
       0.027283516 0.043976866 -0.062057704 -0.013255164
000100 58 fa 2e 3d ec ef 22 3c ec 0b 06 bd 27 06 cd 3d
       0.042719215 0.009944897 -0.032726213 0.10010939
000110 e3 02 8e 3c b8 9e ab 3d 03 2a b1 3c cc 58 80 3c
       0.01733536 0.083798826 0.021626478 0.015667342
000120 fe 6a cf bd 77 c0 88 bd 43 47 57 3d 0c b6 9b 3c
       -0.10127829 -0.06677335 0.052558195 0.019007705
000130 34 7f e3 3c 97 08 da 3c e2 d4 9f 3d 66 33 a9 3d
       0.027770616 0.026615424 0.07804276 0.082617566
000140 d2 21 92 bd db d8 46 bd ec 24 9c bc 85 10 0b bc
       -0.07135357 -0.048546653 -0.019060574 -0.008487825
000150 ea b5 53 3d ae a2 db bc 13 e9 5f ba 63 e0 9d bd
       0.05168716 -0.02681097 -0.00085415057 -0.07708814
000160 12 71 94 3d 43 48 ec 3c ae 0a 7b bd 93 48 36 3d
       0.07248129 0.02884305 -0.06128948 0.044502806
000170 b0 5a 40 bd 34 4b 81 3d 0b bb 70 bd 47 b7 e1 bd
       -0.046961486 0.06313172 -0.058772128 -0.110212855
000180 0b 60 31 3c fc 08 9f 3d 5e 9e a3 bc 1e dd c3 3d
       0.010826121 0.077653855 -0.019972976 0.09563659
000190 56 1a b0 3d 80 ad cc 3c 86 0b ba bd 0e cf 54 bc
       0.08598773 0.024985075 -0.09084229 -0.012988819
0001a0 1c 79 60 3c 98 cd c1 3c c2 ee 36 3c f8 62 5f 3d
       0.01370075 0.023657605 0.011165323 0.054537743
0001b0 a1 e6 00 bd be a1 2c bd 8e 3c cd bb 99 3c 8f 3d
       -0.031469945 -0.042146437 -0.006263322 0.0699398
0001c0 64 90 0b 3c 04 80 ca 3c 7f cf 36 3d 86 a6 ad bc
       0.008518312 0.024719246 0.044631477 -0.021197569
0001d0 c4 f3 fc 3a be ca c1 3d 4e 00 16 bd ea 68 88 bb
       0.0019298722 0.09462498 -0.036621384 -0.0041628974
0001e0 0e 92 19 bc 7a 3d cf bc 5a 85 21 3d 46 fe fc bb
       -0.009373201 -0.025297869 0.039433815 -0.0077207414
0001f0 c7 8b b0 bd 8a 3b dd bb 4c 13 73 bd 50 2f 2f bd
       -0.086204104 -0.0067514824 -0.059344575 -0.04276973
000200 4e a8 c5 bd 50 ac 4b bc e2 16 a8 bd 72 7e 98 bd
       -0.09651242 -0.012431219 -0.082074896 -0.074459925
000210 9b 06 56 3c 5b 5f ab 3d 56 a3 ed bc 1e 02 71 bc
       0.013063098 0.08367797 -0.029008549 -0.014709977
000220 26 c4 e7 bc 96 9e 89 bc 68 6a 94 bc 0b 7b fe bc
       -0.028291773 -0.016799252 -0.018117145 -0.03106453
000230 68 29 f9 3c a3 2a 2e bd 6b 94 b3 3c 38 77 69 bc
       0.030415252 -0.04252113 0.021921357 -0.014249615
000240 f0 cb 69 3d 2b 09 ff bc 1d 7e 98 3c fb 01 1e 3d
       0.057079256 -0.031132301 0.018614823 0.038576107
000250 1a 51 82 3c e0 c6 96 bd 97 52 b3 3d 43 73 ef bc
       0.015907813 -0.07362151 0.08755987 -0.029229766
000260 88 25 2a bd e8 88 2c bd 22 bd 33 3d a0 be 15 ba
       -0.0415397 -0.04212275 0.043881543 -0.0005712304
000270 6e 87 d0 bc 23 f9 ab bd 66 06 a7 3d 9f 6d 75 bd
       -0.025455203 -0.083971284 0.08155517 -0.059918996
000280 e2 2f 69 3c 26 09 b8 b9 b7 6e a4 bb 02 8d 50 bc
       0.014232608 -0.0003510203 -0.005018081 -0.012728931
000290 45 09 82 3d c3 8a f1 3b e7 50 96 3d c2 01 87 3d
       0.06349424 0.007371278 0.0733965 0.06592132
0002a0 1f c7 8a bd 94 a9 b3 3c 6a 55 98 bd 0f df 25 bd
       -0.067762606 0.021931447 -0.074381664 -0.04049593
0002b0 16 3c 93 bc 9b e7 49 ba fa 8b 7b 3d d2 d5 24 3d
       -0.017972987 -0.00077020534 0.06141279 0.040242977
0002c0 ca 1c 92 bd d4 8e 04 3d 50 1e b9 3d 50 ef a7 bc
       -0.07134397 0.032362774 0.09038985 -0.020499855
0002d0 0c 7e 25 3d ce 45 a4 3d 5b 43 7c 3c cc 13 1c 3c
       0.04040341 0.08021127 0.015396918 0.009526204
0002e0 f0 c0 d2 bc b3 15 4b 3c a4 38 83 bd 1e c3 86 bd
       -0.025726765 0.01239531 -0.06407288 -0.065801844
0002f0 6a 1c 9b 3d 80 14 46 3d 1e 30 5c 3b ab 49 8f bd
       0.07573779 0.048359394 0.0033598016 -0.06996473
000300 33 52 6a 3d f8 82 4d 3d 63 66 0e 3d 48 55 95 bd
       0.057207298 0.05017373 0.034765612 -0.07291657
000310 91 4e 17 3d 8a 98 1a bd 92 9c 91 3d 9b 4a 58 3d
       0.03694016 -0.03774313 0.071099415 0.052805524
000320 9b bb 68 3d 83 3e a7 3d ca 9b 9a bc 4e 1b 80 bc
       0.05681954 0.0816622 -0.018873114 -0.01563802
000330 1c 8d 4d bd 02 01 05 bd 28 85 4c 3d 32 b6 84 3d
       -0.0501834 -0.032471664 0.049931675 0.064800635
000340 97 28 d0 bd f0 56 58 3d 11 99 a3 3d a8 54 91 bd
       -0.10163992 0.052817285 0.079881795 -0.07096225
000350 93 15 02 3c 34 1f 78 bd f8 1d ae 3d 7a fa 50 3d
       0.007939714 -0.060576633 0.0850181 0.051020123
000360 e0 1a be bd 07 20 9b 3c 00 03 38 3d 12 c0 19 bd
       -0.0928247 0.01893617 0.044924736 -0.03753669
000370 87 b1 0e 3c 08 34 a5 bd 20 35 d7 3c 2b ea e0 3c
       0.008709318 -0.08066565 0.02627045 0.02745541
000380 2b c5 64 3d de 2b cc 3d 5e cf 54 bd d3 ea a3 3d
       0.055852097 0.099693045 -0.051955573 0.080037735
000390 43 04 67 bd cc 29 69 3c d6 ef b8 bc 7c 45 82 3c
       -0.05640055 0.014231157 -0.0225753 0.015902273
0003a0 73 79 f9 3c 87 de 24 3d e3 d8 5f 3d 0e 93 7d bd
       0.03045342 0.04025128 0.0546502 -0.06190782
0003b0 8b f1 e4 bc c0 b3 50 3c f4 57 43 3c 80 8d 0b 3c
       -0.027947208 0.012738168 0.011922825 0.008517623
0003c0 1a 1a b7 3d 10 9e 79 3d f8 16 39 bc d4 eb ac 3c
       0.08940525 0.060941756 -0.01129698 0.021108545
0003d0 53 f9 af 3d 7a 00 c3 3d bd 78 9a bd af cc 01 ba
       0.08592477 0.09521575 -0.0754256 -0.00049514597
0003e0 53 c8 7a bd 3c bb 15 3d 68 ad 06 bd a6 a1 86 3d
       -0.0612262 0.036555514 -0.032880217 0.06573801
0003f0 68 b4 be 3d ee 4b 32 bd a2 65 1f 3b ff 9a 8d bc
       0.093117535 -0.043529443 0.0024322052 -0.017285822

fc2.bias f4 [84]
000000 4a 92 8c 3d 3a c8 e6 bc 10 8f c9 bc f7 31 5d 3b
       0.0686384 -0.028171647 -0.02460435 0.0033751705
000010 27 13 2d 3d 52 52 0f b9 07 dd b3 bc db 5e 2a 3d
       0.042254593 -0.0001366821 -0.02195598 0.041594367
000020 8f 2d 66 bc 7f ab 58 3d a6 b6 80 3c c3 a8 0c bd
       -0.014048948 0.052897926 0.015712094 -0.03434063
000030 88 6f bf 3d b4 bb a2 3d 93 f8 ea bc 73 7f 19 bd
       0.09347445 0.07945958 -0.028682983 -0.03747506
000040 98 a2 a2 3d a2 56 72 bd 2e bb b8 3d 04 f0 b4 bd
       0.079411685 -0.05916465 0.09020077 -0.08834842
000050 d0 2f 17 3d a3 f7 b7 3c 86 14 b8 3d a7 2f d3 3c
       0.036910832 0.02245695 0.089882895 0.025779558
000060 a7 0c a7 bd 1b fe 50 bd da 0b 86 3d 9a cb 9e bd
       -0.0815671 -0.051023584 0.06545229 -0.07753678
000070 5e 16 b5 3c b8 12 a8 3b 28 c9 65 3d cc f3 a7 bd
       0.022105392 0.0051291846 0.05610004 -0.082007974
000080 bb 3f de bb e0 71 b6 3d 43 4b b9 3b fc 7b 8c bd
       -0.0067824996 0.08908439 0.005654724 -0.06859586
000090 ec df 00 bd 8a ad 0e bd b3 d5 8b 3d e7 01 4f bd
       -0.03146355 -0.03483347 0.06827869 -0.050538924
0000a0 68 3c 26 3c 2b 4a 52 3d d6 f8 41 bc 20 23 5b bd
       0.010146238 0.051340263 -0.011839112 -0.053500295
0000b0 36 c4 96 bd d8 eb c0 3c 0d c3 a2 3d a8 ed 84 3d
       -0.07361643 0.023549959 0.07947359 0.06490642
0000c0 b0 22 65 3d cb 17 b2 bd 08 c3 45 bd d8 a3 b0 bb
       0.055941284 -0.086959444 -0.0482817 -0.0053906254
0000d0 73 8c 8e bd 6f 50 4c bc 08 92 93 bd a7 4b a4 3d
       -0.06960382 -0.012470349 -0.072055876 0.08022242
0000e0 da cc e7 3b 13 83 c5 3c ea e6 09 bd 67 c5 a8 3d
       0.0070739808 0.024110353 -0.033667482 0.082407765
0000f0 79 08 80 3d f1 2f 82 bd 13 96 00 bd 14 27 f1 bc
       0.06251616 -0.063568 -0.031393122 -0.02943758
000100 38 4c aa 3d f3 41 f9 3c c0 37 b5 3d 2a f6 22 3c
       0.08315319 0.030426955 0.08848524 0.009946385
000110 98 c6 95 3d 76 6a e3 bc e4 7f 8d bd 1c 92 42 3d
       0.073132694 -0.027760725 -0.06909159 0.047502622
000120 f0 eb 51 3d e0 da 37 3d d0 81 a9 bd d0 57 d0 3c
       0.0512504 0.04488647 -0.08276713 0.025432497
000130 29 4c 97 3d d3 d5 62 3d 98 7b 4a 3d 94 b8 0a 3c
       0.07387573 0.0553797 0.049434274 0.008466858
000140 12 91 a6 3d 3b b8 5b bd f0 a4 4e bd 18 26 a6 bd
       0.08133139 -0.053642493 -0.050450265 -0.081127346

fc3.weight f4 [10, 84]
000000 0e 56 3d 3d 7f 4e 1f bd 7f c3 b4 3d f0 4e d3 3c
       0.046224646 -0.03889322 0.088263504 0.025794476
000010 6a 5e a4 3b c8 d5 3a 3d 88 86 df bc 97 4f 78 bc
       0.005016138 0.045614034 -0.02728583 -0.015155694
000020 4b 6b d6 3d 2f 32 22 bd 55 4b 10 be 9a d6 42 3d
       0.10469683 -0.03959864 -0.14091237 0.04756794
000030 92 c3 53 3d ae 47 3c bd ef 16 b5 3d c6 e0 b8 3d
       0.051700182 -0.045966797 0.08842265 0.09027247
000040 76 f3 75 3d 27 f0 13 bd 6e 94 0f be 7f fa da 3c
       0.060046636 -0.0361177 -0.14021465 0.026730774
000050 d3 24 5e bd 26 6f 17 bd 8b ea d8 3d 58 e5 23 bd
       -0.054234337 -0.036971234 0.105916105 -0.04001364
000060 ce 3c 97 3b c3 0e 83 bc 9e 87 db bd a3 50 a7 bc
       0.004615403 -0.01599825 -0.10719226 -0.020424193
000070 88 49 aa bd 1c 3d d9 3d f8 61 d4 bc da 10 09 3d
       -0.08314806 0.10607359 -0.025925621 0.033463337
000080 93 92 16 be 63 3f 90 3d 64 d8 6d 3e 76 5d 20 bc
       -0.14704351 0.0704334 0.23227078 -0.009787908
000090 cb b2 fe 3c ab 27 23 3d b4 8b 5c 3d 6f cb da bd
       0.031091115 0.039832752 0.05384417 -0.10683333
0000a0 e3 3e a2 3d 44 af ce 3d e4 92 34 bd ba be 2e 3e
       0.07922151 0.10092023 -0.0440854 0.17064944
0000b0 d2 66 9e bc 6f 74 d5 bd f6 fb f7 3d d0 1e a7 bb
       -0.019336138 -0.104225986 0.121086046 -0.0051001087
0000c0 58 b8 e0 3d fa f3 bc bd 23 b6 2b 3d 1f 56 94 3d
       0.10972661 -0.09226222 0.041921746 0.07242989
0000d0 7e a9 9f bd cf 55 c1 bd 4c f9 31 be 11 72 8f 3d
       -0.07796 -0.09440195 -0.17380255 0.07004178
0000e0 30 eb 7b 3d 93 78 cd 3d 00 2c 99 3c 53 7f c9 3d
       0.06150359 0.10032763 0.018697739 0.09838738
0000f0 f6 2f 1e be 4b 12 31 be 5f ad 69 3d bf 9b 4a bc
       -0.15447983 -0.17292134 0.057050105 -0.012366234
000100 6c 9e 38 3d ba 1c 3c 3e 37 e3 ae 3c bb a2 29 bd
       0.045072958 0.18370333 0.021348579 -0.041414957
000110 f0 e5 40 be e0 3b ab 3c e6 dc 1a be 22 de 63 be
       -0.18837714 0.020902574 -0.15123329 -0.22252706
000120 7a ec 75 bd 2a 5f 2b be 4a 98 80 3d 92 92 7b bd
       -0.060039975 -0.16735521 0.06279047 -0.061419077
000130 20 e3 22 be 08 ac 63 3d ff 69 9e 3d 0a e1 98 3c
       -0.15906954 0.055583984 0.07735061 0.018661994
000140 2a e9 cb 3c 82 71 ca 3a f8 39 17 bd 60 27 60 bc
       0.024891455 0.0015445205 -0.036920518 -0.013681263
000150 e0 26 57 3d 6e ae 0e 3e fa 67 0e 3d 1c 02 25 bc
       0.05252731 0.13933727 0.03476713 -0.010071304
000160 d3 76 b6 3d 20 40 11 3e b6 36 87 3c 1a 13 10 3d
       0.08909383 0.14184618 0.01650558 0.035174467
000170 c0 1a a0 3d 4c 93 46 bb 1a 1b 3b ba ff 47 56 3d
       0.07817602 -0.0030300198 -0.00071375223 0.052314755
000180 57 41 2e be 53 70 30 be 82 de a4 bd bf 92 0f 3e
       -0.17017113 -0.17230348 -0.080502525 0.14020823
000190 12 36 2d 3e 06 8f 2e 3d ba 36 53 3e fc 3f 8a 3c
       0.16915157 0.042616867 0.20626345 0.016876213
0001a0 bf f5 66 3c eb 3e 53 bd 4b c7 6b bd f2 d5 5a bd
       0.014096676 -0.051573675 -0.057563107 -0.05342669
0001b0 de 7e fc 3c 69 83 00 bd c7 78 05 be 00 af d2 bd
       0.030822214 -0.031375322 -0.13034354 -0.10287285
0001c0 c8 7c c6 bd 46 8e 3f be db 09 fb 3b a0 35 cb 3d
       -0.09691769 -0.18706617 0.007661087 0.099223375
0001d0 23 ad 05 be 46 32 46 3c 53 bc 2b 3e 04 71 a0 3d
       -0.13054328 0.012096947 0.16771059 0.07834056
0001e0 e6 bc 2f bd e7 a1 4e 3d 7f 69 4f 3e 8f ac 29 bc
       -0.042904757 0.05044737 0.20255087 -0.010356083
0001f0 98 40 d5 bd 04 62 88 bd a2 4e e8 bc ce 2c 78 bd
       -0.10412711 -0.0665932 -0.028357808 -0.060589604
000200 57 cd ac bc 1f 24 38 3d c4 85 9b bc 7f ff fc 3d
       -0.021094007 0.044956323 -0.018984683 0.123534195
000210 e0 c4 31 be fc 0b 17 bd d3 b5 db bc c7 29 0f 3e
       -0.17360258 -0.036876664 -0.026820099 0.1398078
000220 70 77 e6 bc 3f b6 c1 bc 80 d5 ee bd d8 24 f0 3d
       -0.028133124 -0.023646472 -0.11661816 0.117257774
000230 1f f4 43 3e ef 04 eb bd ca f0 37 bd 10 6d ab bd
       0.19136094 -0.114755504 -0.04490737 -0.083704114
000240 3e ff ea 3c a2 46 44 3e 87 ce da bd ca ac 85 3d
       0.028686162 0.1916757 -0.10683923 0.065270975
000250 b3 d4 37 be ce c9 a9 3d 42 2c 90 3d 93 2b 10 3e
       -0.17952232 0.08290444 0.070396915 0.14079122
000260 50 85 a3 bc fc a1 05 3e ca a7 90 3d e6 b7 f2 ba
       -0.01996103 0.13050073 0.07063253 -0.0018517941
000270 de c4 e6 3d 8e 50 23 bd a8 fb 37 3c 10 f6 a7 bc
       0.11268018 -0.039871745 0.011229433 -0.020503074
000280 42 be e3 3d fe 63 d6 bd f3 cb 5c 3c c6 3c 3e bd
       0.11120273 -0.10468291 0.01347636 -0.046444677
000290 42 c5 e5 3c 1b 94 f3 bd 8a 78 7c bd a4 2a 5c 3d
       0.028048161 -0.11893483 -0.061638393 0.053751603
0002a0 17 bd 12 3e 5a 95 4d bd af a2 d0 3d 46 42 de 3d
       0.14329945 -0.05019126 0.101872794 0.108524844
0002b0 10 3c a9 bd 3a 8d 23 3e 16 aa fd bc 02 ad 98 bc
       -0.08263409 0.15971842 -0.030964892 -0.018637184
0002c0 c2 2a 4d bc 8a 27 18 be aa a8 83 3d 0b 7c f4 bd
       -0.012522401 -0.14858833 0.064286545 -0.11937722
0002d0 d2 24 5c be 9a 4b 69 3d 4f 36 5f 3d b3 b5 5f 3d
       -0.21498421 0.056956865 0.054495152 0.05461664
0002e0 7c cf 05 bc 8e bb 8f 3d a3 54 66 be 3f 86 34 3d
       -0.008167144 0.07018195 -0.22493224 0.04407334
0002f0 9f 1d ac 3d a4 92 14 3e 00 a9 c2 bc 27 85 ce 3c
       0.08404087 0.14509064 -0.023762226 0.025209976
000300 b6 7f e6 bd 7e 20 05 3e 0e 42 c5 3d d0 e9 a3 3d
       -0.11254828 0.13000676 0.096317396 0.080035806
000310 9a 24 08 3b 23 35 a2 bd f8 cb 75 3c 38 1e 89 bd
       0.002077377 -0.07920291 0.015002243 -0.06695217
000320 e8 40 45 3e 24 4f 1d bd 84 74 c2 3d 4e 81 ae 3d
       0.19263041 -0.038405553 0.0949488 0.08520757
000330 6e fb 9f 3c 68 35 c9 3d a0 aa 01 bc a8 dc ca 3c
       0.01952907 0.098246396 -0.007914215 0.02476342
000340 f8 b1 f6 3d f8 e0 18 bd 96 fd e3 bd c8 32 24 3e
       0.120456636 -0.037323922 -0.11132352 0.16034997
000350 02 a9 e3 bc 82 a1 9b 3a 41 43 1e bd 43 fc 35 be
       -0.02779055 0.0011873695 -0.038638357 -0.17772011
000360 86 9b 58 3d 5d 74 24 3c 44 84 92 3d af 10 05 3e
       0.052882694 0.010037509 0.07154134 0.12994646
000370 23 7a fa bd 9a 98 6a bd 0f 0f f9 3b 48 19 40 3d
       -0.12230327 -0.05727444 0.007600672 0.04689911
000380 e8 46 26 3d d6 6b b2 bd 47 4c be 3c 2f 09 bb 3c
       0.040594965 -0.08711974 0.023229731 0.022831528
000390 8c f2 20 3e c0 0d f3 3c e0 81 72 3d 40 9c d6 3d
       0.15717524 0.029669642 0.05920589 0.10479021
0003a0 57 84 87 3c 0e a3 51 3d 7f b2 b8 bd 1f 5a 0f 3e
       0.016542597 0.05118089 -0.090184204 0.13999222
0003b0 ce a3 b8 3d 12 9c f8 bd 4b 69 01 bd 8c c8 1a 3e
       0.09015618 -0.12139143 -0.031594556 0.15115565
0003c0 84 bc db bd 97 e3 08 be 90 8b 8e 3d 3a 50 3a be
       -0.10729316 -0.13368069 0.06960213 -0.18194667
0003d0 3c 53 0d be 42 c1 82 bd 46 5f d7 bd 65 76 89 bd
       -0.13801283 -0.06384517 -0.10516219 -0.06712035
0003e0 2a 5d 92 bd 7b 0b 34 bd 28 e1 ec 3d 2c af 11 bb
       -0.07146676 -0.04395626 0.11566383 -0.0022229655
0003f0 2e 41 5d 3d f8 90 11 3e 52 45 5b bd 86 b2 06 3e
       0.05401724 0.14215457 -0.053532906 0.13154039

fc3.bias f4 [10]
000000 ab 46 2d bd f4 b8 b4 bc 67 5e c4 bd e6 c9 32 ba
       -0.042303722 -0.022060849 -0.09588318 -0.00068202463
000010 00 e7 94 3d af 42 cd bc b0 85 66 bd 01 d3 24 3e
       0.07270622 -0.025056211 -0.056279838 0.16096117
000020 4e 94 b8 bd 18 1d 91 3d
       -0.09012662 0.07085627
